homeworks/data/checkpoints/checkpoint.pt (torch, 59723 bytes, 8 tensors)

h1.weight f4 [16, 784]
00000000: 6ff2 a13c 6bfa c83c 172e 5abc f115 a93c
00000010: 1b13 b83c e398 9d3b 63ec cebc 4092 553a
00000020: b46e f7bb b5a4 03bd 9cf4 44bb e972 823c
00000030: 40b1 34bc 96aa 9fbb d848 fdbb fbc9 9dbc
00000040: ddbc ff3c a90b 603c bf15 f3bc f1ca cdbc
00000050: e7fa d1bc 51d0 02bd 4d46 10bd a237 00bd
00000060: dbfd c3bb d9fd 93bc 4bc7 c9bb 71eb cdbc
00000070: 21a7 bfbc c5ad 9b3b 3b67 aebc 1d47 073d
00000080: 9c10 7c3c 81e3 08bd 972e 533c 2d1b db3c
00000090: 29df adbc c92a bd3c 2d9a 893c 5c5d e7bc
000000a0: 66fc a03b f091 1bbd b668 c3bc 9cee 153d
000000b0: 460b 89bc dfb7 acbb df76 343c 3f67 c8bc
000000c0: 546a 803c 6931 023d 139e cf3c c3fb 0439
000000d0: ad6d f2bc caeb 063c 2d5b 8d3c 03b3 47bc
000000e0: bdba 71bc f7b7 c23c 7d12 babc 1f1e 0e3d
000000f0: d330 0e3d 3639 95bc 2e17 a2bc 9cab afbb
00000100: c6e1 09bc f36a 33bc 9e13 353b 8475 39bd
00000110: 7a50 5bbc 4779 5fbd d873 8bbc 73ea e4bc
00000120: 0196 4ebd 368b 1f3c caad 06bd 1218 3cbc
00000130: 3188 3ebc 5c63 01bd 5fd0 f93c 2481 03bd
00000140: e236 9f3c 8655 0d3b e1ae d43b d9c2 033d
00000150: 59ea 92bc 6bb4 2fbc 09c2 023d 7983 743c
00000160: dcc2 953c 0301 f13b eb37 7b3b b414 303b
00000170: a0cb 4c3b 9091 a8bc 4c2f 27bd c91a 27bd
00000180: e643 01be 32c7 b9bd e8b3 a1bd c4eb a7bd
00000190: 04b5 24bd d9b1 f5bb 86d0 01bd d51c 46bd
000001a0: d5bc 21bd bfb9 f1bc b901 19bc 8b9d 0ebd
000001b0: cdab d0bc 1cf8 0b3d 99f0 d93c 9fdf f43c
000001c0: e588 433c 9381 d2bc adee e9bb ef82 09bb
000001d0: 7e37 debc 80c1 773c 3e6e fc3c 21e2 e7ba
000001e0: ed3f 54bc a904 71bd 1ea4 0cbe 8999 c5bd
000001f0: 17e2 57be 66a5 70be 20e1 5fbe 9684 1cbe
00000200: e32e cbbd bc93 8bbc d3c9 72bc b7c3 19bd
00000210: 3301 2bbc bc34 91ba 34c7 e0ba 85aa e93b
00000220: 7006 b43a 593f 3b3d 4bf1 203d 439e f2bc
00000230: 86b9 b83a fbc3 973c ddc2 fe3c 28c7 113d
00000240: 5d16 453d 9243 1bbb 38c8 e23a ace7 503a
00000250: 59a7 c4bc fec7 a8bd 3ff5 6ebd 5d7f 9bbd
00000260: 3684 f7bd bb2d dcbd a27f f9bd ebf6 15be
00000270: 3d3c 4cbe afdc e9bd 400b b9bd eec1 92bd
00000280: 2407 23bc 2881 0fbc 0ed5 d13c bdec 6cbc
00000290: 98c1 7c3d d181 893c ca6b abbc d5f2 873b
000002a0: 708f 3b3b 7578 8e3c 28bd 0f3d 7060 27bc
000002b0: 674c 843d 1080 843d a2a9 d73c f15e 893d
000002c0: b297 b03d c20d ba3d 0963 053e 7485 cc3d
000002d0: 6bd7 ae3d 9f3a 3e3d 0d40 bd3b bbf3 563c
000002e0: 2277 0abc b062 123d b6c9 1ebc a98a 70bd
000002f0: 3a49 1e3d 13db e03b 3c54 5fbc ffa2 52bb
00000300: 6772 d63b a6e9 aa3c b932 fdbc 0f3b 05bc
00000310: 0269 013c e9a4 0abd 5b20 393c b058 c13d
00000320: 77ad 903d 4b97 8f3c 57e2 b43d 6d7a bb3d
00000330: 24ef f93d 1608 393e 4584 2d3e 70aa f33d
00000340: 7c77 423e c462 373e c1f1 a53d dd93 163e
00000350: 25df 513d 741f c63d cba6 a23d 1ee9 3d3d
00000360: 7c3e 2bba 18bf a4bc ba6e 6ebd 52b7 96bd
00000370: 3114 1fbd 3b3b 89bc 97ca a73c d9a8 d6bc
00000380: 86b3 cdbc 99b9 df3c 487e 67bc 0f09 9e3c
00000390: 5646 283d 1e80 d03c e30b 3f3d 3a8f 703d
000003a0: 0388 133e 924b 1d3e 894f 153e becb 4a3e
000003b0: 66a4 1a3e 5c61 f83d 93bb 3c3e 02a7 e23d
000003c0: 1952 193e d43b 773d 52e1 183d 20d3 3cbd
000003d0: 6539 9b3c 711a 6bbd a8ed d33c a545 e73c
000003e0: 3e6a 5dbd ac8b 153c 49a2 883c 86d3 debc
000003f0: d1e5 c9bc ae74 253c 884e 0b3d 730d 183d
0.019768922 0.024533471 -0.013316653 0.020640345 0.022470048 0.0048094853 -0.025259202 0.0008147098
-0.0075510386 -0.0321395 -0.0030053025 0.015923934 -0.011028588 -0.0048726304 -0.007729631 -0.01926135
0.031217987 0.013674655 -0.029673455 -0.025121184 -0.025632335 -0.031936947 -0.035223294 -0.031303056
-0.0059811897 -0.01806538 -0.006157791 -0.025136681 -0.023395123 0.0047509396 -0.021289458 0.033026803
0.015384819 -0.03342009 0.012889526 0.026746357 -0.021224575 0.02309169 0.01679715 -0.02824276
0.0049129007 -0.037980974 -0.023853641 0.03660451 -0.016729008 -0.0052709426 0.011014669 -0.024463294
0.015675701 0.031785402 0.02534393 0.0001268229 -0.029593313 0.008234927 0.01725539 -0.012188676
-0.0147539945 0.023769362 -0.022713894 0.034696694 0.03471453 -0.018215757 -0.019786444 -0.0053610336
-0.008415645 -0.010950792 0.00276301 -0.045278087 -0.013385886 -0.05455902 -0.017023012 -0.027943825
-0.050436024 0.00973778 -0.032880582 -0.011480348 -0.01162915 -0.031588897 0.030494867 -0.03210558
0.01943535 0.0021565869 0.0064905738 0.032168243 -0.017934011 -0.010724167 0.031923328 0.014923924
0.018281393 0.007354857 0.003833289 0.0026867809 0.00312493 -0.020577222 -0.04081659 -0.04079703
-0.12623557 -0.090711966 -0.078956425 -0.081992656 -0.040211692 -0.0074980077 -0.031693004 -0.04836734
-0.039486725 -0.029507516 -0.00933879 -0.034818213 -0.025472546 0.034172162 0.026603984 0.029891787
0.011934494 -0.025696551 -0.007139048 -0.0020982584 -0.02712607 0.015121818 0.030814286 -0.0017691293
-0.012954694 -0.058842335 -0.1373448 -0.09648425 -0.2108234 -0.23500594 -0.21863222 -0.15284953
-0.09921052 -0.017038219 -0.014818626 -0.037540164 -0.010437298 -0.0011078338 -0.0017149211 0.007130923
0.0013734829 0.04571471 0.039292615 -0.02961648 0.0014093376 0.018526068 0.031098777 0.03559032
0.04811703 -0.0023691398 0.0017302101 0.0007969092 -0.024005579 -0.082412705 -0.058339354 -0.07592652
-0.12085764 -0.1075091 -0.12182547 -0.14644973 -0.19944854 -0.11419045 -0.09035349 -0.071658954
-0.009950433 -0.008758821 0.025614288 -0.01446074 0.061708063 0.016785534 -0.020925421 0.004148821
0.002861943 0.017391423 0.035092503 -0.010215864 0.06459885 0.064697385 0.026326004 0.06707562
0.086226836 0.09084655 0.1302606 0.09986392 0.085371815 0.046442624 0.0057754577 0.013119633
-0.008451255 0.035738647 -0.009691646 -0.058725987 0.038644053 0.006862053 -0.013630923 -0.003214061
0.0065443995 0.020863365 -0.030907976 -0.008131756 0.007898571 -0.033848677 0.011299218 0.09440744
0.07064336 0.017528197 0.088322334 0.0915421 0.122038156 0.18069491 0.16944988 0.11897743
0.18990892 0.1790877 0.081027515 0.14704843 0.051238198 0.09673968 0.079419695 0.046364896
-0.0006532443 -0.020110652 -0.058211066 -0.07359184 -0.038837615 -0.016751876 0.020482345 -0.02620356
-0.025110018 0.02731018 -0.014129229 0.019291429 0.041082703 0.025451716 0.046642195 0.05873034
0.14407353 0.15360859 0.14581122 0.19804284 0.15101776 0.12127945 0.18430929 0.110670105
0.14972724 0.06035979 0.037324257 -0.046099782 0.018948266 -0.057398263 0.02587016 0.028231451
-0.0540564 0.009127539 0.016678946 -0.027200472 -0.024645718 0.010098619 0.03401044 0.0371222

h1.bias f4 [16]
00000000: 2b72 35bc fb55 1c3d fe39 223d 1e0c 0bbc
00000010: 27b9 2b3d 7d74 a83d 1971 05bd 5c08 d93b
00000020: 19ae fdbb 129d 7c3d 6b51 04bd de18 e73b
00000030: c725 8c3d bde0 f23c 1179 28bc adcc 283d
-0.011074583 0.038167935 0.039606087 -0.008486776 0.041924622 0.082253434 -0.03257856 0.006623311
-0.0077417013 0.06167323 -0.03230421 0.007052525 0.06843143 0.02964818 -0.010282771 0.04121082

h2.weight f4 [32, 16]
00000000: 1d00 b03e 51b6 41be b879 ac3c b1c6 18be
00000010: b33d 7c3e fffa eabd 44a3 883e 4ded 3a3e
00000020: fc80 d93d 416e dabd 394a bcbe cba5 aabe
00000030: b4cd 2d3e f7eb a23e ace5 193e fc69 ca3d
00000040: e6b1 863e cf7a 1a3a 485d 9c3d 5127 1f3e
00000050: 964d 8dbe 5d29 ebbb 99a7 15bd 2e78 0bbe
00000060: 5432 16bc 1c0c 51be ab94 b73d 9a16 61bd
00000070: c4eb dfbe fd98 e73e 121f 97bc 17ea 8cbe
00000080: 68f7 5b3e 991b b53e 1603 98be dc2b 463e
00000090: 799a f63d aaf9 9bbe d15b 833e fb06 b5be
000000a0: c693 a43e f797 46be 5d42 ad3b 11b8 97be
000000b0: 4a94 dcbe 9580 313e fa5b 84be 74fd ef3d
000000c0: 5820 4abe 9644 6a3e b7e7 353e 4502 53be
000000d0: cc30 373d e047 89be 3b89 5ebe fefe 42be
000000e0: cbc4 063d e509 49bd cb81 45be 2162 dc3d
000000f0: 0096 a43c e437 183e 3248 e53d 5a74 2f3e
00000100: eb8c 22be 60c4 a3bd ca4e 34bd 7647 913e
00000110: d245 ae3d 3961 4dbd a317 1dbe c0d1 903e
00000120: ec06 55be a09d a73e 4028 323e 25ec 093e
00000130: 9f7e 603e 5bfa 19be 0fc7 37be 45ab 833e
00000140: 3926 803e 7b67 a33e f44e 13bf 471e 973e
00000150: 7132 733c 2e25 ef3e 3f39 e33d 06bc 8f3e
00000160: 53be b53c aa2f c03c e1ed 713c 4553 6bbe
00000170: 67bd 263e 7764 163e ac49 3bbe 5f56 fdbe
00000180: ef91 6d3e c12b e83d c9a3 0a3e 6be7 943e
00000190: 6eaf 4f3e dacf 683d b34b d6bb b4ae debe
000001a0: c521 98be ac88 a33e 6153 953d d0ca 31bd
000001b0: 198e debd 8730 8fbe 853f 103f 1935 6bbe
000001c0: 6142 65be bf1a 33be 2c0e 84bd 6518 8e3e
000001d0: a1a6 39be ca7a 043e 1b4c a5bd 08ed 84bd
000001e0: 43a6 8e3d 7055 aabe 511f b0be 21d1 833d
000001f0: 486b 11be 415f a0bd 9ddf 23bd 8116 403e
00000200: 60d9 1c3c 8077 efbd ddd4 b93e df0a e73e
00000210: b469 f7bd c4bb d03e 9338 8b3e 7415 94bc
00000220: d789 29bd 0dde 1abf b7b0 62bd 5c6d c0bd
00000230: 4770 9d3d befc b5be 3e43 57bd f505 17be
00000240: 4ec7 223f ccd8 9ebe 1405 ab3e ef15 3f3c
00000250: 0fc3 a8be 80b2 bfbd d887 a63e 66b4 873d
00000260: 844d b73e fb97 c23e b964 233d b585 a93c
00000270: 100d b13d f45e b53d 5aa0 ef3e b3d3 853e
00000280: f423 cd3d 652c dabd 0628 7cbe 62f1 fe3e
00000290: 277e 02bf 962f 97be 68a6 c93e 2a15 15bd
000002a0: d3c9 183e f1f8 9ebd 7e8b f53d 9bf1 1b3e
000002b0: d7b6 abbe 5566 503e 65ed 1fbd 862d 28be
000002c0: ed39 d33e 32a8 47bd 7472 0b3f 046a 0cbe
000002d0: 637d a1be c3e0 4e3e 1859 853d 56cf 8a3e
000002e0: d763 e03d d139 d03e 7fc0 dabe e74b 523d
000002f0: 085a 4abe 693b 123e 5f22 60be f974 a13d
00000300: e4b2 c83d e002 6b3e 605d ac3e 9a86 1b3e
00000310: dc4f 6cbe e7cc 633e 08ad 203e 7e3e 10bc
00000320: 6068 4b3c 4142 6ebe ebcf 45be 9e9e 7dbe
00000330: 9a40 dfbe af4e 023f c10a c4bd 9544 c8be
00000340: 9601 583e 8188 ad3e 2c59 863e a695 a73e
00000350: 8a3a ea3c eea0 193d 02e0 6abe 7fb1 79be
00000360: 62ff ccbe 83c5 eebd 9b65 48be a380 703e
00000370: c262 823e 5d7e 01be dea1 afba 1723 333d
00000380: 59f3 c03d f25e cf3e 36f5 d03b 667c 833e
00000390: eafa 5b3d d6d9 1dbe 95f4 99be e949 a9bd
000003a0: d83c bd3e 6cb1 f63d e769 48be fbdc cabe
000003b0: 5a23 99be 7192 c03e 14c6 0b3e 939d f4bd
000003c0: d0aa 88bc 6558 6f3d 4f66 f13d 51a2 88be
000003d0: ef40 a43e 8731 87bc 1b83 533e b29c 56bd
000003e0: 62e7 473d 5b16 413d c172 cf3d 7e9b b5bd
000003f0: a257 89be 77d1 78be cfbc 31be deb4 52be
0.34375086 -0.18917204 0.021054134 -0.14919545 0.24632911 -0.11473655 0.26687062 0.18254586
0.10620305 -0.106655605 -0.36775377 -0.33329615 0.16973001 0.31820652 0.15029019 0.09883496
0.263076 0.00058929337 0.076349795 0.15542342 -0.27598256 -0.0071765617 -0.036536787 -0.13620064
-0.009167273 -0.20414776 0.08963903 -0.054953195 -0.43734562 0.45233908 -0.018447433 -0.27522346
0.21481097 0.35372618 -0.29689854 0.19352669 0.12041182 -0.30463916 0.25655988 -0.35356888
0.32143992 -0.19393907 0.005287452 -0.2963262 -0.43081886 0.17334206 -0.25851423 0.11718264
-0.197389 0.22877726 0.17764173 -0.20606335 0.04472427 -0.2681265 -0.21732037 -0.19042584
0.03290252 -0.0490817 -0.19287793 0.10760904 0.020091057 0.1486507 0.11195411 0.17134228
-0.15874068 -0.0799644 -0.04402045 0.28374833 0.08509411 -0.050141547 -0.15341048 0.28285027
-0.20803422 0.32737446 0.17398167 0.13468988 0.21923302 -0.1503691 -0.17947029 0.25716606
0.25029162 0.31914887 -0.5754235 0.29515287 0.014843569 0.46708053 0.11094903 0.28073138
0.02218548 0.023460228 0.014766187 -0.22980984 0.16283189 0.14686762 -0.18289822 -0.49479958
0.232002 0.113364704 0.13539042 0.29082808 0.20281765 0.056838848 -0.006539786 -0.43492663
-0.29713264 0.3194021 0.07291294 -0.043406308 -0.10866947 -0.2796671 0.56346923 -0.22969474
-0.22388603 -0.17490672 -0.064480156 0.27752987 -0.1812997 0.12937465 -0.080711566 -0.064905226
0.06965306 -0.3326831 -0.34398893 0.064363725 -0.14201081 -0.07830668 -0.040008176 0.18758585
0.009573311 -0.11692715 0.36295214 0.4512548 -0.12080708 0.40768254 0.271916 -0.018076636
-0.04139122 -0.6049507 -0.05534431 -0.09395859 0.07687431 -0.3554439 -0.05255436 -0.14748366
0.63585365 -0.31024778 0.33402312 0.011662944 -0.32961318 -0.09360218 0.32525516 0.06626205
0.35801327 0.38006577 0.03989098 0.02069364 0.086450696 0.088560015 0.46802026 0.26138076
0.10016623 -0.10652999 -0.24624643 0.49793535 -0.50973743 -0.29528493 0.3938477 -0.036397137
0.1492074 -0.077623256 0.11989497 0.15228884 -0.33537933 0.20351537 -0.039044756 -0.16423616
0.4125513 -0.048744388 0.54471517 -0.13712317 -0.31540975 0.20202927 0.06511134 0.2711131
0.10956543 0.4066911 -0.42724988 0.051341917 -0.19760907 0.14280476 -0.21888112 0.07883639
0.09799746 0.22950315 0.3366499 0.15188065 -0.23077339 0.22246133 0.15691006 -0.008803962
0.012415022 -0.23267461 -0.19317596 -0.24767539 -0.43603975 0.5090131 -0.09572364 -0.39114824
0.21094355 0.33893207 0.26239908 0.3273136 0.028592367 0.03750699 -0.22937015 -0.24384116
-0.40038592 -0.11658766 -0.1957001 0.23486571 0.2546597 -0.1264586 -0.0013399681 0.043734636
0.09421415 0.40502125 0.0063768877 0.25680846 0.053706087 -0.15415129 -0.30069414 -0.0826605
0.36960483 0.12045559 -0.19571649 -0.3962172 -0.29909784 0.37611726 0.1364978 -0.119441174
-0.016683012 0.05843391 0.11787092 -0.26686338 0.3208079 -0.016503109 0.20655482 -0.05239553
0.04880465 0.04714046 0.101293094 -0.088675484 -0.2682467 -0.24298654 -0.17357181 -0.20576808

h2.bias f4 [32]
00000000: 3098 d8bd e902 c93d 5a78 143e 21ad 51bd
00000010: 83c4 73bd 7c0e a23e 5ab6 b33d e9d5 1d3e
00000020: f923 163a a015 5f3d c5a1 2bbd e4a7 643e
00000030: 49c9 3c3e c99a ba3c cb0e 623e befd 833d
00000040: cd1c b839 eb33 0ebe 2bc6 ff3d 6e30 abbd
00000050: c7db 2d3d 3c64 cd3d 846f 2e3e d672 71be
00000060: b3ea 233e 6da2 133c 1a62 e4bd 808e 623e
00000070: 4bc1 30be 7606 6b3e 6bf7 303e 3f20 4a3e
-0.105759025 0.09815008 0.14499035 -0.0511905 -0.05951358 0.31651676 0.08775015 0.15413631
0.0005727406 0.054463983 -0.041902322 0.2232967 0.18436159 0.022778885 0.22075956 0.06444882
0.00035116673 -0.13886993 0.124889694 -0.083588466 0.042445924 0.10028884 0.17034727 -0.23578963
0.160075 0.009010893 -0.11151524 0.22124672 -0.17261235 0.22951683 0.17281882 0.19738863

h3.weight f4 [24, 32]
00000000: fc6e 2ebe 1d73 f13d f95e 983e 457f 223e
00000010: c6fd cbbd 6ebf 5c3e f463 e8be 9012 05bd
00000020: ea14 17be 7bca 6dbe f9ea f13c 4e0f e0be
00000030: 4742 b33e 5cb7 19be 9826 a03e 7dd3 083e
00000040: 0670 59bd 9b10 413c 0b18 373e 2aea 0bbd
00000050: f82f 31be 670d 9d3e 18e9 603d 908b 3d3e
00000060: fc32 d03e 32d8 05be 1bd7 fc3d e765 413e
00000070: f70f 30be ef1b 873e daab 8c3e 1636 b63d
00000080: 4eb4 b1bc 9134 c9bd c788 f7bd 1185 22be
00000090: f2bb 05be 7a7c d7bb a02c 873d 0f14 fdbb
000000a0: 95d5 043e 6ef2 16bd 8fdf 1e3c 5c96 3cbc
000000b0: c96b f8bd 59c2 44bd 8c77 82bd 92f3 0a3c
000000c0: 285e 3c3d 7588 093e 8480 efbd 451b 01be
000000d0: 5aa4 9e3d 4acf 55bd 2f47 2ebe 9a2b 59bd
000000e0: 1bf4 463d 8b29 cbbb 5b01 27be be5c 31be
000000f0: 3a7d 163e 6f66 2ebe d39d a43c 3c33 bd3b
00000100: 2127 2bbe 3d72 af3d 14bc b7bd 0ae9 283e
00000110: c7a8 1ebe 0690 013c 7812 c53d 95b7 aa3d
00000120: 9cb4 bfbd f2c8 d2bd 56c0 32be f3ab 1b3c
00000130: 61b4 b3bd 5635 1bbe fecc 4d3d f95d 153d
00000140: 333b bcbc 0ff9 91bd 1239 053e 82bf bfbc
00000150: d74e d7bc 86ab 0abe 064f bdbd 5bc0 213d
00000160: b431 36be ff70 253e 3f2e 97bd 50d8 edbd
00000170: 6f54 e53d b0ea 1c3e d68a 9d3d 479f b4bd
00000180: 65e1 393d d4bb 01be 5dae c7bd b305 923b
00000190: 5015 bc3d 0cfa b0bd c667 c73b 8a0f fb3c
000001a0: b93a a93d 3522 fbbc dfb2 abbd 0746 53bc
000001b0: 9922 33be becc 7d3c cb7f d2bd 1838 8bbd
000001c0: eecc 263d ba69 0fbe e1af 163d 2b6d 17bd
000001d0: 35a5 653d 3c21 00bd 1101 323e e90c 923d
000001e0: 17e7 e3b9 c309 0ebe 203d 87bd 0663 0ebe
000001f0: d325 f9bd 7fa2 d3bd dc76 513e 7396 a9bd
00000200: 9803 6fbd f0b2 b13d 5a96 8abc 2cdc d6bc
00000210: c9a1 1fbd 7fe6 0cbe e50c 04be c870 64bc
00000220: 3c10 42bd 0dc1 6b3c fbfd dabc 8c8b 433d
00000230: 0b9e ef3d 07cc 28be d594 aa3b 9d4d 293e
00000240: 25f0 dfbd 7465 90bd 3acb 8cbb c449 453b
00000250: 3ea6 c9bd e6ed d8bb 5217 163e 4939 df3d
00000260: e216 b23a 37b8 a73d 8887 fd3d f9da 31be
00000270: 07fa f3bc 482e 83bd f900 b6bd dfdf 42bc
00000280: 99c0 d03d 63a9 c33d b98e 8abd edde 12bc
00000290: 64b3 e03a b5dd 9f3d 4a91 6fbd 18dd a2bd
000002a0: a17a 51be a9d5 bd3e d08d 4f3e 3284 993e
000002b0: 5dae 373d 09fc 3f3d 8831 c23d b61f 3d3c
000002c0: 2063 79bd 4231 6dbe 9774 11be f2a4 623e
000002d0: b18f e23e 6a57 0cbe e3a3 42be 4caf a03e
000002e0: 3e19 9ebd fe69 f23e 8e39 29be 95d5 08be
000002f0: 25e2 913e 035c 3f3e 7d8e 3e3c 944c 7bbd
00000300: b44d 193e 5a8e cebe dad0 5abe 1efc 81bd
00000310: d8c3 b43d a8c6 013f bde9 27be dfb5 4fbd
00000320: 2e4b 413e 2340 183e 8e04 6bbe 840b 40be
00000330: b424 093d f8f8 97be 0c9f 96be 84ca 913d
00000340: d7f3 5a3d 09ca a63e 7afe 283c 9151 e7bd
00000350: bd13 8d3e 62c2 1c3d 0067 6f3e 11f9 a43e
00000360: 54e0 54bc da86 d93e 8516 8bbe 41b3 8dbd
00000370: f616 ca3e b4b5 4abd dad2 843e 1036 a3bc
00000380: fceb 493d ee36 8fbe 075d b8be 9070 b03d
00000390: b3b7 143e 4d41 7c3e cc31 9b3d 11bd 9e3c
000003a0: 426e e8bd 5886 04be b93d b7be fa9d 433e
000003b0: f951 93bc c85f 813e 846e 83be d705 f9bd
000003c0: 2296 323e c62e cf3e 0b3e f43d b005 ebbd
000003d0: b266 ffbb 99d9 d83c 7c9a 243e fc7e 963d
000003e0: 4f64 c6be 9513 c83d 503b 14be 683f 25bc
000003f0: bddd 0f3e e296 3d3e fead 5dbe 13e5 da3d
-0.17034525 0.11789534 0.29759958 0.15868862 -0.09960513 0.215574 -0.45388758 -0.032488406
-0.14754072 -0.23221771 0.029530989 -0.43761677 0.35011503 -0.15011352 0.31279445 0.13361926
-0.05308535 0.011783744 0.17880265 -0.034158863 -0.17303455 0.30674288 0.054909796 0.1851027
0.40663898 -0.13070753 0.123457156 0.18886529 -0.1719359 0.263885 0.27474862 0.08897035
-0.021692421 -0.09824479 -0.12086635 -0.15871073 -0.13059977 -0.006576118 0.066003084 -0.0077233384
0.129721 -0.036852293 0.009696855 -0.011510458 -0.121299334 -0.048036907 -0.06370458 0.008480923
0.045988232 0.1343096 -0.11694434 -0.12608059 0.07746191 -0.05219964 -0.17019342 -0.053020097
0.04857264 -0.0062000207 -0.16309111 -0.17320535 0.14696208 -0.17031263 0.020094788 0.00577393
-0.16714145 0.08566711 -0.0897142 0.16495147 -0.15494071 0.007907873 0.09622663 0.08335797
-0.093606204 -0.102922335 -0.17456183 0.009501445 -0.08774639 -0.15157065 0.050244324 0.036466572
-0.022977447 -0.07127582 0.13010052 -0.023406748 -0.026282711 -0.13541993 -0.09243588 0.039490085
-0.17792398 0.16156386 -0.073818676 -0.11613524 0.11197745 0.15323901 0.076924965 -0.08819442
0.04538097 -0.12669307 -0.09750054 0.004456246 0.091837525 -0.08641443 0.006085369 0.030647058
0.082631536 -0.03065596 -0.08383726 -0.012895114 -0.17493667 0.015490709 -0.10278281 -0.067978084
0.04072278 -0.14005175 0.036788825 -0.036969345 0.056065757 -0.031281695 0.1738322 0.07131369
-0.0004346899 -0.13870911 -0.066034555 -0.13904962 -0.121654175 -0.10333728 0.20455498 -0.08280649
-0.058353037 0.08676708 -0.016917396 -0.026228033 -0.03897265 -0.13759802 -0.12895544 -0.013942905
-0.047378764 0.014389289 -0.026732435 0.047740504 0.11700066 -0.1648408 0.0052057304 0.16533513
-0.10934476 -0.07050601 -0.0042966874 0.0030103782 -0.09846161 -0.0066201566 0.14657333 0.10899598
0.0013587142 0.08189433 0.12379366 -0.17368688 -0.029782308 -0.06405312 -0.08886904 -0.011894195
0.10192985 0.09553792 -0.067655034 -0.008964282 0.0017143306 0.07805959 -0.058488168 -0.079523265
-0.20456935 0.37077072 0.20268941 0.2998367 0.04484402 0.04687122 0.094821036 0.011543205
-0.06088555 -0.23163322 -0.14204632 0.22133234 0.44250253 -0.13705221 -0.1900783 0.3138374
-0.07719658 0.4734649 -0.16525862 -0.13362725 0.28492847 0.18687443 0.011630652 -0.061352327
0.14971048 -0.4034298 -0.21368733 -0.06346916 0.08826417 0.5069375 -0.16397758 -0.050710555
0.18876335 0.14868216 -0.22950956 -0.18754393 0.03348227 -0.29682136 -0.29418218 0.07118705
0.0534552 0.32576016 0.010314578 -0.112948544 0.27554122 0.038271315 0.23379135 0.32221273
-0.012992937 0.42485696 -0.2716562 -0.069189556 0.39470643 -0.04948969 0.25942117 -0.01992324
0.049297318 -0.27971596 -0.36008474 0.086152196 0.145232 0.24634285 0.075778574 0.019377263
-0.11349155 -0.12941873 -0.35789278 0.19103232 -0.017983424 0.25268388 -0.25670254 -0.12159317
0.17440084 0.40465373 0.11925896 -0.11475694 -0.0077942247 0.026470946 0.16074556 0.07348439
-0.38748404 0.0976936 -0.14475751 -0.010085918 0.1404943 0.18514588 -0.21648404 0.10688224

h3.bias f4 [24]
00000000: e379 8c3d cc15 00be 2814 3abe 9e19 c4bd
00000010: a3d9 37bc eedd 5e3b d347 ab3d 2a44 91bc
00000020: 65ad f23d bc89 a23c 7d89 773d 69e5 a93d
00000030: fdfa 923d 8ba3 8abc 604d 0dbe 00da a33e
00000040: d07d 0e3e 2312 0f3e 1c58 38be ec62 15be
00000050: f186 f03d 8607 92bd c139 b7bc 3f4b 073e
0.068591855 -0.12508315 -0.18171751 -0.095751986 -0.011221322 0.0034006792 0.08363309 -0.017732698
0.11849479 0.019841067 0.060433853 0.0829571 0.071767785 -0.016923686 -0.13799047 0.32002258
0.13915181 0.13971762 -0.18002361 -0.14588517 0.11744488 -0.07130341 -0.022366406 0.13212298

out.weight f4 [10, 24]
00000000: 0252 e9be 0b5a 25bd 9d15 c03d c6f6 e03d
00000010: 195d 2abe 4ce5 bbbe 2b49 36bf 6f15 2abe
00000020: dee6 8ebe c385 9d3e 08f4 053f 0107 ab3e
00000030: d60f 16bf 8bf3 d83e 5bc4 2a3e 68c2 cabe
00000040: 9e18 cdbd 63c6 8f3d 699a a8bc 8cb0 7d3d
00000050: 0124 dbbe eec0 093f 0028 2bbc a912 f9bd
00000060: b95c 08be f8e4 fc3c 08a0 f93d 1cd9 fe3d
00000070: 0ff7 3fbe b682 b13e c4e9 bf3e 855b 16be
00000080: 3d8d c0bd 1414 fdbe 69ec d9be e445 443d
00000090: e33a d93e 9be8 9dbe 093f 22bd d5fb 023f
000000a0: 89fd f23e ac67 f6bd 5b68 efbd 99cf 453f
000000b0: e80f 6fbe cd2a d33d 742a 92be 047a fbbd
000000c0: 7088 293d 391c 093e 80c8 bf3d 5be9 48be
000000d0: 7a84 c5bd 855c 313e 26af 803d e482 543e
000000e0: c0d9 9dbe 4001 003f a8d7 0dbf 9487 a03d
000000f0: 31f5 8bbe afb6 52be ddb2 223e 38a3 f0bd
00000100: 7df0 d0bd 3bf9 913e cc75 b03e 4dcc 1a3e
00000110: 1ba4 173f 8d8b f93e 743b 43be 56a5 64bd
00000120: e597 9dbe fd04 0a3c c6bd d6bd d661 87bd
00000130: 2269 0b3e 3133 0a3f fe8a 463f 1493 3e3e
00000140: 1b9b 823e 9c81 0abe c153 853e 09fe 0ebf
00000150: 854c 263e a599 97be 9657 0fbe 1e21 bdbe
00000160: 3254 adbe 116c e1bb 0940 e9bd b0c6 b8be
00000170: b248 78be 4d01 593d e53e 5b3e 66f9 90be
00000180: 1486 5f3f 7723 18be 867d 90bc e7f9 a4bc
00000190: ed53 183d c466 17be ab3f 78be b6cf a0be
000001a0: 27ad 793d c956 a83c b001 243e af4b 52be
000001b0: 03e5 2cbe aa13 e2be e45a 0abc 7c57 c33e
000001c0: 8e1b 893e 15d0 023f 21b4 803d d2f1 80be
000001d0: 061a 99be c06c a9be 96a3 32be 371f 7fbd
000001e0: e37c 05be 3d0d 103e 50e2 b6bd 755b d8bd
000001f0: 7fa0 0dbd 63f2 3c3e 0695 f93d 0bcf 4e3e
00000200: 8f7d 2fbf def8 04bf 6bfc 953e e6a9 c93e
00000210: ff26 983e 8ec8 183e 73a5 833d 3648 a53e
00000220: 230f b6bd b438 febd 27b6 4a3e 2be8 91be
00000230: 418d 69be 6625 bebe 1c60 1f3f cba4 fdbd
00000240: 182a 8e3e 0383 9b3c fd12 22be e86c 57be
00000250: cddf 293d af0c 40be d778 a6bb 88c7 b03e
00000260: cf97 bfbe 37c5 2cbf 3e36 673e 80aa 223f
00000270: 0ede bebe bfa2 e03d 3ba8 ea3d b7c0 d3be
00000280: 3c29 d03e cbc3 583e 72c5 b23c fa60 283e
00000290: c431 cc3e 400c a2be d43f b1be 62b8 f43c
000002a0: 81f6 873d ccc1 4a3e fee4 9f3d f548 473e
000002b0: 90d4 243d 20a7 a93e 31a5 89be 3f11 36bf
000002c0: 09b0 ee3d 732d 983d 2816 89bd 3a1c d4be
000002d0: f6e8 bcbe 847b 85be 0a29 e8be 7e21 67be
000002e0: c219 1d3e d7a3 fbbe 9fe7 9b3e ae13 d83e
000002f0: bf31 743c 9a7f 523e 6c0c 443f 19c5 ea3e
00000300: d393 aabe 4f47 fa3d 14ff 063e 9225 11be
00000310: 11fd ecbd fe50 d0be f4aa d33e 0588 a73e
00000320: bd7f b43e c40c c03d 816b 003c 1145 3dbe
00000330: 7764 6e3e 671e 083f 3e3b ddbe 6829 3e3e
00000340: 6bc4 d5be 4489 993d f2b6 ae3e a71b afbe
00000350: f58e babb 5dc9 9ebe a2fe c5be e47f 22bd
00000360: 316a 523d a096 9cbd 151c 3a3e 0cc6 ce3c
00000370: 20a5 f7bd 4802 3bbc 80ed c5be ffc8 943e
00000380: 6ecf 193f c33e ed3d d9df abbe b9e2 3fba
00000390: e020 cc3e b89e 57be ce34 c93e f18d 263d
000003a0: def1 55be f43c ea3e d466 33bf e668 3ebe
000003b0: 5952 ac3d 6016 ecbe 5f5d 9f3e 2dd9 a43e
-0.4557038 -0.040369075 0.093791224 0.10984568 -0.16637076 -0.36698377 -0.71205395 -0.16609739
-0.27910513 0.30766115 0.5232549 0.3340378 -0.58617914 0.4237331 0.16676466 -0.39601445
-0.10014461 0.07020261 -0.020581441 0.061935946 -0.42800906 0.5381001 -0.010446548 -0.12161762
-0.13316621 0.0308709 0.12188727 0.12443754 -0.18746589 0.34670037 0.37483037 -0.1468335
-0.09401939 -0.4942938 -0.4256318 0.047918215 0.4242774 -0.30841526 -0.039610896 0.51165515
0.47459057 -0.120314926 -0.11689826 0.77269894 -0.23345912 0.10310898 -0.28548014 -0.12279132
0.041389883 0.13389672 0.09364414 -0.19620268 -0.096444085 0.1732045 0.06283407 0.20753056
-0.30830193 0.5000191 -0.5540719 0.078383595 -0.27335504 -0.20577501 0.15888543 -0.117498815
-0.102021195 0.2851046 0.34464872 0.15116997 0.5923478 0.4873928 -0.19065648 -0.05582174
-0.3077995 0.008424041 -0.10485415 -0.066104576 0.13614324 0.5398436 0.77555835 0.18610793
0.2550896 -0.13526005 0.26040462 -0.55856377 0.16240127 -0.2960941 -0.13998255 -0.3693933
-0.33853298 -0.0068793376 -0.11389167 -0.36089087 -0.24246481 0.052979756 0.21410711 -0.28315276
0.8731396 -0.14857279 -0.01763798 -0.020138694 0.037189413 -0.14785296 -0.24243037 -0.3140847
0.060956147 0.020549195 0.16016269 -0.20536683 -0.16884236 -0.44155627 -0.008444522 0.38152683
0.26778835 0.5109876 0.06284357 -0.25184494 -0.29902667 -0.33090782 -0.17445216 -0.06228563
-0.13035922 0.1406755 -0.089298844 -0.10564319 -0.03457689 0.18451838 0.12186627 0.20196168
-0.6855096 -0.5194224 0.29294142 0.39387435 0.29717252 0.14920256 0.06428041 0.32281655
-0.08889606 -0.12413159 0.19796048 -0.28497443 -0.2280779 -0.37137908 0.62256026 -0.123849474
0.2776649 0.01898337 -0.15827556 -0.21037638 0.0414732 -0.18754838 -0.005080323 0.3452723
-0.37420508 -0.67488426 0.22579286 0.6354141 -0.3727879 0.10968541 0.11457869 -0.41357967
0.4065646 0.21168439 0.021822665 0.16443244 0.39881718 -0.3164997 -0.3461901 0.029873077
0.06638814 0.1980049 0.07807349 0.19461425 0.040241778 0.3313532 -0.26883844 -0.71120065
0.1165467 0.07430544 -0.06693679 -0.41427785 -0.36896485 -0.26070797 -0.4534381 -0.2257137
0.15341857 -0.49148437 0.3045015 0.42202514 0.0149044385 0.20556489 0.76581454 0.458535
-0.33315906 0.12220632 0.13183242 -0.14174488 -0.11571706 -0.40686792 0.41341364 0.32720962
0.35253707 0.09377435 0.007838131 -0.18483378 0.23280512 0.5317139 -0.4320926 0.18570483
-0.41751418 0.074968845 0.3412395 -0.34200785 -0.0056933113 -0.31013003 -0.38670832 -0.039672747
0.051370803 -0.07645917 0.18174775 0.02524092 -0.12092042 -0.011414118 -0.3865776 0.29059598
0.6008214 0.115842365 -0.3356922 -0.0007319856 0.39868832 -0.2105664 0.392981 0.04066271
-0.20893046 0.4574963 -0.7007878 -0.18594703 0.08414144 -0.4611082 0.31125924 0.32196942

out.bias f4 [10]
00000000: 252a 32be 9fcb 833c 3d79 1cbe ae39 c03d
00000010: 5e8e e13c 057f a13c 83e8 63be 8b06 f63d
00000020: 6caf 9cbe de75 2a3e
-0.1739889 0.016088305 -0.15280624 0.093860015 0.027533706 0.019713888 -0.22256665 0.12012967
-0.30602586 0.16646525
